…
 Creating Layer data\n    I1230 23:53:03.080049  2138 net.cpp:411] data -> data\n    I1230 23:53:03.080066  2138 net.cpp:411] data -> label_coarse\n    I1230 23:53:03.080076  2138 net.cpp:411] data -> label_fine\n    I1230 23:53:03.080088  2138 hdf5_data_layer.cpp:79] Loading list of HDF5 filenames from: cifar_100_caffe_hdf5/train.txt\n    I1230 23:53:03.080137  2138 hdf5_data_layer.cpp:93] Number of HDF5 files: 1\n    I1230 23:53:03.081096  2138 hdf5.cpp:35] Datatype class: H5T_INTEGER\n    I1230 23:53:05.449695  2138 net.cpp:150] Setting up data\n    I1230 23:53:05.449764  2138 net.cpp:157] Top shape: 100 3 32 32 (307200)\n    I1230 23:53:05.449777  2138 net.cpp:157] Top shape: 100 (100)\n    I1230 23:53:05.449789  2138 net.cpp:157] Top shape: 100 (100)\n    I1230 23:53:05.449797  2138 net.cpp:165] Memory required for data: 1229600\n    I1230 23:53:05.449825  2138 layer_factory.hpp:77] Creating layer label_coarse_data_1_split\n    I1230 23:53:05.449852  2138 net.cpp:106] Creating Layer label_coarse_data_1_split\n    I1230 23:53:05.449862  2138 net.cpp:454] label_coarse_data_1_split <- label_coarse\n    I1230 23:53:05.449878  2138 net.cpp:411] label_coarse_data_1_split -> label_coarse_data_1_split_0\n    I1230 23:53:05.449893  2138 net.cpp:411] label_coarse_data_1_split -> label_coarse_data_1_split_1\n    I1230 23:53:05.449945  2138 net.cpp:150] Setting up label_coarse_data_1_split\n    I1230 23:53:05.449956  2138 net.cpp:157] Top shape: 100 (100)\n    I1230 23:53:05.449965  2138 net.cpp:157] Top shape: 100 (100)\n    I1230 23:53:05.449971  2138 net.cpp:165] Memory required for data: 1230400\n    I1230 23:53:05.449980  2138 layer_factory.hpp:77] Creating layer label_fine_data_2_split\n    I1230 23:53:05.449990  2138 net.cpp:106] Creating Layer label_fine_data_2_split\n    I1230 23:53:05.449997  2138 net.cpp:454] label_fine_data_2_split <- label_fine\n    I1230 23:53:05.450006  2138 net.cpp:411] label_fine_data_2_split -> label_fine_data_2_split_0\n    I1230 23:53:05.450017  2138 net.cpp:411] label_fine_data_2_split -> label_fine_data_2_split_1\n    I1230 23:53:05.450062  2138 net.cpp:150] Setting up label_fine_data_2_split\n    I1230 23:53:05.450072  2138 net.cpp:157] Top shape: 100 (100)\n    I1230 23:53:05.450078  2138 net.cpp:157] Top shape: 100 (100)\n    I1230 23:53:05.450084  2138 net.cpp:165] Memory required for data: 1231200\n    I1230 23:53:05.450090  2138 layer_factory.hpp:77] Creating layer conv1\n    I1230 23:53:05.450103  2138 net.cpp:106] Creating Layer conv1\n    I1230 23:53:05.450109  2138 net.cpp:454] conv1 <- data\n    I1230 23:53:05.450116  2138 net.cpp:411] conv1 -> conv1\n    I1230 23:53:05.451526  2138 net.cpp:150] Setting up conv1\n    I1230 23:53:05.451545  2138 net.cpp:157] Top shape: 100 64 29 29 (5382400)\n    I1230 23:53:05.451552  2138 net.cpp:165] Memory required for data: 22760800\n    I1230 23:53:05.451567  2138 layer_factory.hpp:77] Creating layer cccp1a\n    I1230 23:53:05.451578  2138 net.cpp:106] Creating Layer cccp1a\n    I1230 23:53:05.451584  2138 net.cpp:454] cccp1a <- conv1\n    I1230 23:53:05.451592  2138 net.cpp:411] cccp1a -> cccp1a\n    I1230 23:53:05.451936  2138 net.cpp:150] Setting up cccp1a\n    I1230 23:53:05.451962  2138 net.cpp:157] Top shape: 100 42 29 29 (3532200)\n    I1230 23:53:05.451979  2138 net.cpp:165] Memory required for data: 36889600\n    I1230 23:53:05.452003  2138 layer_factory.hpp:77] Creating layer relu1a\n    I1230 23:53:05.452013  2138 net.cpp:106] Creating Layer relu1a\n    I1230 23:53:05.452020  2138 net.cpp:454] relu1a <- cccp1a\n    I1230 23:53:05.452029  2138 net.cpp:397] relu1a -> cccp1a (in-place)\n    I1230 23:53:05.452046  2138 net.cpp:150] Setting up relu1a\n    I1230 23:53:05.452055  2138 net.cpp:157] Top shape: 100 42 29 29 (3532200)\n    I1230 23:53:05.452061  2138 net.cpp:165] Memory required for data: 51018400\n    I1230 23:53:05.452069  2138 layer_factory.hpp:77] Creating layer cccp1b\n    I1230 23:53:05.452080  2138 net.cpp:106] Creating Layer cccp1b\n    I1230 23:53:05.452097  2138 net.cpp:454] cccp1b <- cccp1a\n    I1230 23:53:05.452105  2138 net.cpp:411] cccp1b -> cccp1b\n    I1230 23:53:05.452296  2138 net.cpp:150] Setting up cccp1b\n    I1230 23:53:05.452307  2138 net.cpp:157] Top shape: 100 32 29 29 (2691200)\n    I1230 23:53:05.452314  2138 net.cpp:165] Memory required for data: 61783200\n    I1230 23:53:05.452325  2138 layer_factory.hpp:77] Creating layer pool1\n    I1230 23:53:05.452335  2138 net.cpp:106] Creating Layer pool1\n    I1230 23:53:05.452342  2138 net.cpp:454] pool1 <- cccp1b\n    I1230 23:53:05.452350  2138 net.cpp:411] pool1 -> pool1\n    I1230 23:53:05.452407  2138 net.cpp:150] Setting up pool1\n    I1230 23:53:05.452415  2138 net.cpp:157] Top shape: 100 32 14 14 (627200)\n    I1230 23:53:05.452441  2138 net.cpp:165] Memory required for data: 64292000\n    I1230 23:53:05.452447  2138 layer_factory.hpp:77] Creating layer drop1\n    I1230 23:53:05.452461  2138 net.cpp:106] Creating Layer drop1\n    I1230 23:53:05.452466  2138 net.cpp:454] drop1 <- pool1\n    I1230 23:53:05.452473  2138 net.cpp:397] drop1 -> pool1 (in-place)\n    I1230 23:53:05.452496  2138 net.cpp:150] Setting up drop1\n    I1230 23:53:05.452503  2138 net.cpp:157] Top shape: 100 32 14 14 (627200)\n    I1230 23:53:05.452509  2138 net.cpp:165] Memory required for data: 66800800\n    I1230 23:53:05.452525  2138 layer_factory.hpp:77] Creating layer relu1b\n    I1230 23:53:05.452534  2138 net.cpp:106] Creating Layer relu1b\n    I1230 23:53:05.452540  2138 net.cpp:454] relu1b <- pool1\n    I1230 23:53:05.452548  2138 net.cpp:397] relu1b -> pool1 (in-place)\n    I1230 23:53:05.452556  2138 net.cpp:150] Setting up relu1b\n    I1230 23:53:05.452574  2138 net.cpp:157] Top shape: 100 32 14 14 (627200)\n    I1230 23:53:05.452579  2138 net.cpp:165] Memory required for data: 69309600\n    I1230 23:53:05.452584  2138 layer_factory.hpp:77] Creating layer conv2\n    I1230 23:53:05.452594  2138 net.cpp:106] Creating Layer conv2\n    I1230 23:53:05.452599  2138 net.cpp:454] conv2 <- pool1\n    I1230 23:53:05.452605  2138 net.cpp:411] conv2 -> conv2\n    I1230 23:53:05.452957  2138 net.cpp:150] Setting up conv2\n    I1230 23:53:05.452980  2138 net.cpp:157] Top shape: 100 42 11 11 (508200)\n    I1230 23:53:05.452986  2138 net.cpp:165] Memory required for data: 71342400\n    I1230 23:53:05.452996  2138 layer_factory.hpp:77] Creating layer pool2\n    I1230 23:53:05.453006  2138 net.cpp:106] Creating Layer pool2\n    I1230 23:53:05.453011  2138 net.cpp:454] pool2 <- conv2\n    I1230 23:53:05.453019  2138 net.cpp:411] pool2 -> pool2\n    I1230 23:53:05.453060  2138 net.cpp:150] Setting up pool2\n    I1230 23:53:05.453068  2138 net.cpp:157] Top shape: 100 42 5 5 (105000)\n    I1230 23:53:05.453073  2138 net.cpp:165] Memory required for data: 71762400\n    I1230 23:53:05.453079  2138 layer_factory.hpp:77] Creating layer drop2\n    I1230 23:53:05.453086  2138 net.cpp:106] Creating Layer drop2\n    I1230 23:53:05.453091  2138 net.cpp:454] drop2 <- pool2\n    I1230 23:53:05.453099  2138 net.cpp:397] drop2 -> pool2 (in-place)\n    I1230 23:53:05.453116  2138 net.cpp:150] Setting up drop2\n    I1230 23:53:05.453125  2138 net.cpp:157] Top shape: 100 42 5 5 (105000)\n    I1230 23:53:05.453130  2138 net.cpp:165] Memory required for data: 72182400\n    I1230 23:53:05.453135  2138 layer_factory.hpp:77] Creating layer relu2\n    I1230 23:53:05.453142  2138 net.cpp:106] Creating Layer relu2\n    I1230 23:53:05.453147  2138 net.cpp:454] relu2 <- pool2\n    I1230 23:53:05.453155  2138 net.cpp:397] relu2 -> pool2 (in-place)\n    I1230 23:53:05.453171  2138 net.cpp:150] Setting up relu2\n    I1230 23:53:05.453178  2138 net.cpp:157] Top shape: 100 42 5 5 (105000)\n    I1230 23:53:05.453184  2138 net.cpp:165] Memory required for data: 72602400\n    I1230 23:53:05.453191  2138 layer_factory.hpp:77] Creating layer conv3\n    I1230 23:53:05.453199  2138 net.cpp:106] Creating Layer conv3\n    I1230 23:53:05.453205  2138 net.cpp:454] conv3 <- pool2\n    I1230 23:53:05.453224  2138 net.cpp:411] conv3 -> conv3\n    I1230 23:53:05.454000  2138 net.cpp:150] Setting up conv3\n    I1230 23:53:05.454030  2138 net.cpp:157] Top shape: 100 64 4 4 (102400)\n    I1230 23:53:05.454038  2138 net.cpp:165] Memory required for data: 73012000\n    I1230 23:53:05.454052  2138 layer_factory.hpp:77] Creating layer pool3\n    I1230 23:53:05.454074  2138 net.cpp:106] Creating Layer pool3\n    I1230 23:53:05.454082  2138 net.cpp:454] pool3 <- conv3\n    I1230 23:53:05.454099  2138 net.cpp:411] pool3 -> pool3\n    I1230 23:53:05.454129  2138 net.cpp:150] Setting up pool3\n    I1230 23:53:05.454138  2138 net.cpp:157] Top shape: 100 64 2 2 (25600)\n    I1230 23:53:05.454143  2138 net.cpp:165] Memory required for data: 73114400\n    I1230 23:53:05.454147  2138 layer_factory.hpp:77] Creating layer relu3\n    I1230 23:53:05.454155  2138 net.cpp:106] Creating Layer relu3\n    I1230 23:53:05.454161  2138 net.cpp:454] relu3 <- pool3\n    I1230 23:53:05.454169  2138 net.cpp:397] relu3 -> pool3 (in-place)\n    I1230 23:53:05.454176  2138 net.cpp:150] Setting up relu3\n    I1230 23:53:05.454193  2138 net.cpp:157] Top shape: 100 64 2 2 (25600)\n    I1230 23:53:05.454210  2138 net.cpp:165] Memory required for data: 73216800\n    I1230 23:53:05.454216  2138 layer_factory.hpp:77] Creating layer ip1\n    I1230 23:53:05.454228  2138 net.cpp:106] Creating Layer ip1\n    I1230 23:53:05.454244  2138 net.cpp:454] ip1 <- pool3\n    I1230 23:53:05.454252  2138 net.cpp:411] ip1 -> ip1\n    I1230 23:53:05.456027  2138 net.cpp:150] Setting up ip1\n    I1230 23:53:05.456053  2138 net.cpp:157] Top shape: 100 768 (76800)\n    I1230 23:53:05.456058  2138 net.cpp:165] Memory required for data: 73524000\n    I1230 23:53:05.456068  2138 layer_factory.hpp:77] Creating layer sig1\n    I1230 23:53:05.456086  2138 net.cpp:106] Creating Layer sig1\n    I1230 23:53:05.456092  2138 net.cpp:454] sig1 <- ip1\n    I1230 23:53:05.456099  2138 net.cpp:397] sig1 -> ip1 (in-place)\n    I1230 23:53:05.456106  2138 net.cpp:150] Setting up sig1\n    I1230 23:53:05.456112  2138 net.cpp:157] Top shape: 100 768 (76800)\n    I1230 23:53:05.456117  2138 net.cpp:165] Memory required for data: 73831200\n    I1230 23:53:05.456122  2138 layer_factory.hpp:77] Creating layer ip1_sig1_0_split\n    I1230 23:53:05.456130  2138 net.cpp:106] Creating Layer ip1_sig1_0_split\n    I1230 23:53:05.456135  2138 net.cpp:454] ip1_sig1_0_split <- ip1\n    I1230 23:53:05.456141  2138 net.cpp:411] ip1_sig1_0_split -> ip1_sig1_0_split_0\n    I1230 23:53:05.456151  2138 net.cpp:411] ip1_sig1_0_split -> ip1_sig1_0_split_1\n    I1230 23:53:05.456182  2138 net.cpp:150] Setting up ip1_sig1_0_split\n    I1230 23:53:05.456190  2138 net.cpp:157] Top shape: 100 768 (76800)\n    I1230 23:53:05.456197  2138 net.cpp:157] Top shape: 100 768 (76800)\n    I1230 23:53:05.456202  2138 net.cpp:165] Memory required for data: 74445600\n    I1230 23:53:05.456207  2138 layer_factory.hpp:77] Creating layer ip_c\n    I1230 23:53:05.456213  2138 net.cpp:106] Creating Layer ip_c\n    I1230 23:53:05.456229  2138 net.cpp:454] ip_c <- ip1_sig1_0_split_0\n    I1230 23:53:05.456236  2138 net.cpp:411] ip_c -> ip_c\n    I1230 23:53:05.456428  2138 net.cpp:150] Setting up ip_c\n    I1230 23:53:05.456437  2138 net.cpp:157] Top shape: 100 20 (2000)\n    I1230 23:53:05.456444  2138 net.cpp:165] Memory required for data: 74453600\n    I1230 23:53:05.456451  2138 layer_factory.hpp:77] Creating layer ip_c_ip_c_0_split\n    I1230 23:53:05.456459  2138 net.cpp:106] Creating Layer ip_c_ip_c_0_split\n    I1230 23:53:05.456475  2138 net.cpp:454] ip_c_ip_c_0_split <- ip_c\n    I1230 23:53:05.456481  2138 net.cpp:411] ip_c_ip_c_0_split -> ip_c_ip_c_0_split_0\n    I1230 23:53:05.456488  2138 net.cpp:411] ip_c_ip_c_0_split -> ip_c_ip_c_0_split_1\n    I1230 23:53:05.456516  2138 net.cpp:150] Setting up ip_c_ip_c_0_split\n    I1230 23:53:05.456523  2138 net.cpp:157] Top shape: 100 20 (2000)\n    I1230 23:53:05.456529  2138 net.cpp:157] Top shape: 100 20 (2000)\n    I1230 23:53:05.456534  2138 net.cpp:165] Memory required for data: 74469600\n    I1230 23:53:05.456540  2138 layer_factory.hpp:77] Creating layer accuracy_c\n    I1230 23:53:05.456547  2138 net.cpp:106] Creating Layer accuracy_c\n    I1230 23:53:05.456553  2138 net.cpp:454] accuracy_c <- ip_c_ip_c_0_split_0\n    I1230 23:53:05.456559  2138 net.cpp:454] accuracy_c <- label_coarse_
…
y.hpp:77] Creating layer data\n    I1230 23:53:05.460093  2138 net.cpp:106] Creating Layer data\n    I1230 23:53:05.460100  2138 net.cpp:411] data -> data\n    I1230 23:53:05.460114  2138 net.cpp:411] data -> label_coarse\n    I1230 23:53:05.460122  2138 net.cpp:411] data -> label_fine\n    I1230 23:53:05.460134  2138 hdf5_data_layer.cpp:79] Loading list of HDF5 filenames from: cifar_100_caffe_hdf5/test.txt\n    I1230 23:53:05.460160  2138 hdf5_data_layer.cpp:93] Number of HDF5 files: 1\n    I1230 23:53:05.847424  2138 net.cpp:150] Setting up data\n    I1230 23:53:05.847476  2138 net.cpp:157] Top shape: 120 3 32 32 (368640)\n    I1230 23:53:05.847486  2138 net.cpp:157] Top shape: 120 (120)\n    I1230 23:53:05.847494  2138 net.cpp:157] Top shape: 120 (120)\n    I1230 23:53:05.847501  2138 net.cpp:165] Memory required for data: 1475520\n    I1230 23:53:05.847512  2138 layer_factory.hpp:77] Creating layer label_coarse_data_1_split\n    I1230 23:53:05.847528  2138 net.cpp:106] Creating Layer label_coarse_data_1_split\n    I1230 23:53:05.847537  2138 net.cpp:454] label_coarse_data_1_split <- label_coarse\n    I1230 23:53:05.847549  2138 net.cpp:411] label_coarse_data_1_split -> label_coarse_data_1_split_0\n    I1230 23:53:05.847563  2138 net.cpp:411] label_coarse_data_1_split -> label_coarse_data_1_split_1\n    I1230 23:53:05.847609  2138 net.cpp:150] Setting up label_coarse_data_1_split\n    I1230 23:53:05.847620  2138 net.cpp:157] Top shape: 120 (120)\n    I1230 23:53:05.847628  2138 net.cpp:157] Top shape: 120 (120)\n    I1230 23:53:05.847635  2138 net.cpp:165] Memory required for data: 1476480\n    I1230 23:53:05.847642  2138 layer_factory.hpp:77] Creating layer label_fine_data_2_split\n    I1230 23:53:05.847664  2138 net.cpp:106] Creating Layer label_fine_data_2_split\n    I1230 23:53:05.847676  2138 net.cpp:454] label_fine_data_2_split <- label_fine\n    I1230 23:53:05.847687  2138 net.cpp:411] label_fine_data_2_split -> label_fine_data_2_split_0\n    I1230 23:53:05.847697  2138 net.cpp:411] label_fine_data_2_split -> label_fine_data_2_split_1\n    I1230 23:53:05.847735  2138 net.cpp:150] Setting up label_fine_data_2_split\n    I1230 23:53:05.847746  2138 net.cpp:157] Top shape: 120 (120)\n    I1230 23:53:05.847754  2138 net.cpp:157] Top shape: 120 (120)\n    I1230 23:53:05.847760  2138 net.cpp:165] Memory required for data: 1477440\n    I1230 23:53:05.847767  2138 layer_factory.hpp:77] Creating layer conv1\n    I1230 23:53:05.847780  2138 net.cpp:106] Creating Layer conv1\n    I1230 23:53:05.847787  2138 net.cpp:454] conv1 <- data\n    I1230 23:53:05.847797  2138 net.cpp:411] conv1 -> conv1\n    I1230 23:53:05.848098  2138 net.cpp:150] Setting up conv1\n    I1230 23:53:05.848124  2138 net.cpp:157] Top shape: 120 64 29 29 (6458880)\n    I1230 23:53:05.848136  2138 net.cpp:165] Memory required for data: 27312960\n    I1230 23:53:05.848160  2138 layer_factory.hpp:77] Creating layer cccp1a\n    I1230 23:53:05.848181  2138 net.cpp:106] Creating Layer cccp1a\n    I1230 23:53:05.848194  2138 net.cpp:454] cccp1a <- conv1\n    I1230 23:53:05.848212  2138 net.cpp:411] cccp1a -> cccp1a\n    I1230 23:53:05.848475  2138 net.cpp:150] Setting up cccp1a\n    I1230 23:53:05.848500  2138 net.cpp:157] Top shape: 120 42 29 29 (4238640)\n    I1230 23:53:05.848510  2138 net.cpp:165] Memory required for data: 44267520\n    I1230 23:53:05.848529  2138 layer_factory.hpp:77] Creating layer relu1a\n    I1230 23:53:05.848546  2138 net.cpp:106] Creating Layer relu1a\n    I1230 23:53:05.848558  2138 net.cpp:454] relu1a <- cccp1a\n    I1230 23:53:05.848573  2138 net.cpp:397] relu1a -> cccp1a (in-place)\n    I1230 23:53:05.848592  2138 net.cpp:150] Setting up relu1a\n    I1230 23:53:05.848605  2138 net.cpp:157] Top shape: 120 42 29 29 (4238640)\n    I1230 23:53:05.848618  2138 net.cpp:165] Memory required for data: 61222080\n    I1230 23:53:05.848628  2138 layer_factory.hpp:77] Creating layer cccp1b\n    I1230 23:53:05.848645  2138 net.cpp:106] Creating Layer cccp1b\n    I1230 23:53:05.848657  2138 net.cpp:454] cccp1b <- cccp1a\n    I1230 23:53:05.848673  2138 net.cpp:411] cccp1b -> cccp1b\n    I1230 23:53:05.848997  2138 net.cpp:150] Setting up cccp1b\n    I1230 23:53:05.849027  2138 net.cpp:157] Top shape: 120 32 29 29 (3229440)\n    I1230 23:53:05.849040  2138 net.cpp:165] Memory required for data: 74139840\n    I1230 23:53:05.849089  2138 layer_factory.hpp:77] Creating layer pool1\n    I1230 23:53:05.849109  2138 net.cpp:106] Creating Layer pool1\n    I1230 23:53:05.849122  2138 net.cpp:454] pool1 <- cccp1b\n    I1230 23:53:05.849138  2138 net.cpp:411] pool1 -> pool1\n    I1230 23:53:05.849205  2138 net.cpp:150] Setting up pool1\n    I1230 23:53:05.849222  2138 net.cpp:157] Top shape: 120 32 14 14 (752640)\n    I1230 23:53:05.849236  2138 net.cpp:165] Memory required for data: 77150400\n    I1230 23:53:05.849246  2138 layer_factory.hpp:77] Creating layer drop1\n    I1230 23:53:05.849266  2138 net.cpp:106] Creating Layer drop1\n    I1230 23:53:05.849278  2138 net.cpp:454] drop1 <- pool1\n    I1230 23:53:05.849294  2138 net.cpp:397] drop1 -> pool1 (in-place)\n    I1230 23:53:05.849339  2138 net.cpp:150] Setting up drop1\n    I1230 23:53:05.849360  2138 net.cpp:157] Top shape: 120 32 14 14 (752640)\n    I1230 23:53:05.849373  2138 net.cpp:165] Memory required for data: 80160960\n    I1230 23:53:05.849385  2138 layer_factory.hpp:77] Creating layer relu1b\n    I1230 23:53:05.849400  2138 net.cpp:106] Creating Layer relu1b\n    I1230 23:53:05.849412  2138 net.cpp:454] relu1b <- pool1\n    I1230 23:53:05.849429  2138 net.cpp:397] relu1b -> pool1 (in-place)\n    I1230 23:53:05.849448  2138 net.cpp:150] Setting up relu1b\n    I1230 23:53:05.849475  2138 net.cpp:157] Top shape: 120 32 14 14 (752640)\n    I1230 23:53:05.849485  2138 net.cpp:165] Memory required for data: 83171520\n    I1230 23:53:05.849498  2138 layer_factory.hpp:77] Creating layer conv2\n    I1230 23:53:05.849519  2138 net.cpp:106] Creating Layer conv2\n    I1230 23:53:05.849532  2138 net.cpp:454] conv2 <- pool1\n    I1230 23:53:05.849551  2138 net.cpp:411] conv2 -> conv2\n    I1230 23:53:05.850190  2138 net.cpp:150] Setting up conv2\n    I1230 23:53:05.850247  2138 net.cpp:157] Top shape: 120 42 11 11 (609840)\n    I1230 23:53:05.850260  2138 net.cpp:165] Memory required for data: 85610880\n    I1230 23:53:05.850285  2138 layer_factory.hpp:77] Creating layer pool2\n    I1230 23:53:05.850307  2138 net.cpp:106] Creating Layer pool2\n    I1230 23:53:05.850324  2138 net.cpp:454] pool2 <- conv2\n    I1230 23:53:05.850345  2138 net.cpp:411] pool2 -> pool2\n    I1230 23:53:05.850427  2138 net.cpp:150] Setting up pool2\n    I1230 23:53:05.850450  2138 net.cpp:157] Top shape: 120 42 5 5 (126000)\n    I1230 23:53:05.850462  2138 net.cpp:165] Memory required for data: 86114880\n    I1230 23:53:05.850473  2138 layer_factory.hpp:77] Creating layer drop2\n    I1230 23:53:05.850489  2138 net.cpp:106] Creating Layer drop2\n    I1230 23:53:05.850502  2138 net.cpp:454] drop2 <- pool2\n    I1230 23:53:05.850515  2138 net.cpp:397] drop2 -> pool2 (in-place)\n    I1230 23:53:05.850559  2138 net.cpp:150] Setting up drop2\n    I1230 23:53:05.850575  2138 net.cpp:157] Top shape: 120 42 5 5 (126000)\n    I1230 23:53:05.850587  2138 net.cpp:165] Memory required for data: 86618880\n    I1230 23:53:05.850600  2138 layer_factory.hpp:77] Creating layer relu2\n    I1230 23:53:05.850617  2138 net.cpp:106] Creating Layer relu2\n    I1230 23:53:05.850628  2138 net.cpp:454] relu2 <- pool2\n    I1230 23:53:05.850641  2138 net.cpp:397] relu2 -> pool2 (in-place)\n    I1230 23:53:05.850654  2138 net.cpp:150] Setting up relu2\n    I1230 23:53:05.850667  2138 net.cpp:157] Top shape: 120 42 5 5 (126000)\n    I1230 23:53:05.850677  2138 net.cpp:165] Memory required for data: 87122880\n    I1230 23:53:05.850687  2138 layer_factory.hpp:77] Creating layer conv3\n    I1230 23:53:05.850704  2138 net.cpp:106] Creating Layer conv3\n    I1230 23:53:05.850715  2138 net.cpp:454] conv3 <- pool2\n    I1230 23:53:05.850729  2138 net.cpp:411] conv3 -> conv3\n    I1230 23:53:05.851186  2138 net.cpp:150] Setting up conv3\n    I1230 23:53:05.851227  2138 net.cpp:157] Top shape: 120 64 4 4 (122880)\n    I1230 23:53:05.851238  2138 net.cpp:165] Memory required for data: 87614400\n    I1230 23:53:05.851265  2138 layer_factory.hpp:77] Creating layer pool3\n    I1230 23:53:05.851285  2138 net.cpp:106] Creating Layer pool3\n    I1230 23:53:05.851297  2138 net.cpp:454] pool3 <- conv3\n    I1230 23:53:05.851315  2138 net.cpp:411] pool3 -> pool3\n    I1230 23:53:05.851369  2138 net.cpp:150] Setting up pool3\n    I1230 23:53:05.851389  2138 net.cpp:157] Top shape: 120 64 2 2 (30720)\n    I1230 23:53:05.851402  2138 net.cpp:165] Memory required for data: 87737280\n    I1230 23:53:05.851444  2138 layer_factory.hpp:77] Creating layer relu3\n    I1230 23:53:05.851466  2138 net.cpp:106] Creating Layer relu3\n    I1230 23:53:05.851480  2138 net.cpp:454] relu3 <- pool3\n    I1230 23:53:05.851495  2138 net.cpp:397] relu3 -> pool3 (in-place)\n    I1230 23:53:05.851512  2138 net.cpp:150] Setting up relu3\n    I1230 23:53:05.851526  2138 net.cpp:157] Top shape: 120 64 2 2 (30720)\n    I1230 23:53:05.851536  2138 net.cpp:165] Memory required for data: 87860160\n    I1230 23:53:05.851548  2138 layer_factory.hpp:77] Creating layer ip1\n    I1230 23:53:05.851565  2138 net.cpp:106] Creating Layer ip1\n    I1230 23:53:05.851578  2138 net.cpp:454] ip1 <- pool3\n    I1230 23:53:05.851594  2138 net.cpp:411] ip1 -> ip1\n    I1230 23:53:05.855173  2138 net.cpp:150] Setting up ip1\n    I1230 23:53:05.855253  2138 net.cpp:157] Top shape: 120 768 (92160)\n    I1230 23:53:05.855278  2138 net.cpp:165] Memory required for data: 88228800\n    I1230 23:53:05.855307  2138 layer_factory.hpp:77] Creating layer sig1\n    I1230 23:53:05.855342  2138 net.cpp:106] Creating Layer sig1\n    I1230 23:53:05.855365  2138 net.cpp:454] sig1 <- ip1\n    I1230 23:53:05.855387  2138 net.cpp:397] sig1 -> ip1 (in-place)\n    I1230 23:53:05.855414  2138 net.cpp:150] Setting up sig1\n    I1230 23:53:05.855434  2138 net.cpp:157] Top shape: 120 768 (92160)\n    I1230 23:53:05.855448  2138 net.cpp:165] Memory required for data: 88597440\n    I1230 23:53:05.855475  2138 layer_factory.hpp:77] Creating layer ip1_sig1_0_split\n    I1230 23:53:05.855504  2138 net.cpp:106] Creating Layer ip1_sig1_0_split\n    I1230 23:53:05.855514  2138 net.cpp:454] ip1_sig1_0_split <- ip1\n    I1230 23:53:05.855540  2138 net.cpp:411] ip1_sig1_0_split -> ip1_sig1_0_split_0\n    I1230 23:53:05.855566  2138 net.cpp:411] ip1_sig1_0_split -> ip1_sig1_0_split_1\n    I1230 23:53:05.855695  2138 net.cpp:150] Setting up ip1_sig1_0_split\n    I1230 23:53:05.855710  2138 net.cpp:157] Top shape: 120 768 (92160)\n    I1230 23:53:05.855718  2138 net.cpp:157] Top shape: 120 768 (92160)\n    I1230 23:53:05.855736  2138 net.cpp:165] Memory required for data: 89334720\n    I1230 23:53:05.855748  2138 layer_factory.hpp:77] Creating layer ip_c\n    I1230 23:53:05.855778  2138 net.cpp:106] Creating Layer ip_c\n    I1230 23:53:05.855792  2138 net.cpp:454] ip_c <- ip1_sig1_0_split_0\n    I1230 23:53:05.855811  2138 net.cpp:411] ip_c -> ip_c\n    I1230 23:53:05.856233  2138 net.cpp:150] Setting up ip_c\n    I1230 23:53:05.856254  2138 net.cpp:157] Top shape: 120 20 (2400)\n    I1230 23:53:05.856262  2138 net.cpp:165] Memory required for data: 89344320\n    I1230 23:53:05.856274  2138 layer_factory.hpp:77] Creating layer ip_c_ip_c_0_split\n    I1230 23:53:05.856286  2138 net.cpp:106] Creating Layer ip_c_ip_c_0_split\n    I1230 23:53:05.856293  2138 net.cpp:454] ip_c_ip_c_0_split <- ip_c\n    I1230 23:53:05.856302  2138 net.cpp:411] ip_c_ip_c_0_split -> ip_c_ip_c_0_split_0\n    I1230 23:53:05.856324  2138 net.cpp:411] ip_c_ip_c_0_split -> ip_c_ip_c_0_split_1\n    I1230 23:53:05.856359  2138 net.cpp:150] Setting up ip_c_ip_c_0_split\n    I1230 23:53:05.856369  2138 net.cpp:157] Top shape: 120 20 (2400)\n    I1230 23:53:05.856375  2138 net.cpp:157] Top shape: 120 20 (2400)\n    I1230 23:53:05.856382  2138 net.cpp:165] Memory required for data: 89363520\n    I1230 23:53:05.856389  2138 layer_factory.hpp:77] Creating layer accuracy_c\n    I1230 23:53:05.856398  2138 net.cpp:106] Creating Layer accuracy_c\n    I1230 23:53:05.856405  2138 net.cpp:454] accuracy_c <- ip_c_ip_c_0_split_0\n    I1230 23:53:05.856413  2138 net.cpp:454] accuracy_c <- label_coarse_
…
